assets/anomaly_detector.tflite (tflite, 4516 bytes, 3 tensors)

arith.constant1 f4 [156]
101.24604 2.0585294 1.9877571 1.9623152 2.0285594 0.99106896 0.9740369 1.0581894
1.0218002 1.0401372 0.98269546 0.9805808 1.0009924 101.79984 2.034465 2.0346913
2.0431597 2.001534 0.99635017 0.9916507 0.9885116 1.0054586 0.99768436 1.0138727
1.0495912 1.0505596 98.8279 2.0133052 1.9681286 2.095938 2.0359068 1.0056112
1.0239224 1.0372471 1.0165801 1.040551 0.97879744 1.0196606 0.9725842 103.92553
1.9852614 2.0810578 2.0107565 2.022327 0.9833266 1.0138216 1.0448264 0.9804197
0.9830784 0.93487203 1.0194155 0.99321795 99.46942 2.0252738 2.0332255 2.0075724
2.0524209 1.0176111 1.0137724 0.9911672 0.9799524 0.97403914 0.99814934 1.0581031
0.99447244 102.68579 1.9157997 1.9809284 2.0455046 1.9368883 0.98580927 0.96458596
0.99315274 1.008578 0.98705983 0.9827081 0.9890976 0.99880654 100.11916 1.968147
1.9868176 2.0280612 1.9526862 0.97258747 0.98059094 0.9784525 0.9958011 1.007479
1.009562 0.9919082 0.9918614 101.411316 1.9043607 2.0458176 1.96924 2.050976
0.9992282 1.033275 1.0235893 1.035556 1.0090693 1.0046387 0.9855546 1.004258
102.36311 1.9929295 1.9401106 2.0502706 1.9742262 1.0271653 0.96926725 0.9905833
1.037345 1.0203747 0.9680933 1.0049595 1.0285283 101.11807 1.9291315 2.0701358
2.051938 1.9891585 0.9884217 0.946773 0.9926665 1.0005888 1.0165204 1.0096916
0.9908414 0.98016036 102.15459 1.9960487 1.9931672 2.036551 2.028748 1.0105242
1.0001664 1.016964 1.0211935 0.97403836 1.0103852 0.9895695 0.99437976 97.17995
1.9641124 1.9670938 1.8980346 1.9432665 0.97725886 0.98201394 0.9978998 1.0168526
0.99557996 0.9761345 0.9722959 0.9882651
00000000: f97d ca42 f2be 0340 d36e fe3f 252d fb3f
00000010: ebd3 0140 b2b6 7d3f 7b5a 793f c072 873f
00000020: 59ca 823f 3723 853f ee91 7b3f 5807 7b3f
00000030: 8520 803f 8599 cb42 ad34 0240 6238 0240
00000040: 21c3 0240 2219 0040 ce10 7f3f d2dc 7d3f
00000050: 190f 7d3f deb2 803f 3e68 7f3f 95c6 813f
00000060: 0159 863f bd78 863f e3a7 c542 fed9 0040
00000070: a3eb fb3f d923 0640 4c4c 0240 deb7 803f
00000080: e40f 833f 83c4 843f 4c1f 823f c630 853f
00000090: 7892 7a3f 3d84 823f 47fb 783f dfd9 cf42
000000a0: 0c1d fe3f 0d30 0540 3cb0 0040 ce6d 0140
000000b0: 4bbb 7b3f e8c4 813f dfbc 853f c9fc 7a3f
000000c0: 07ab 7b3f c653 6f3f 357c 823f 8843 7e3f
000000d0: 58f0 c642 169e 0140 5e20 0240 117c 0040
000000e0: dd5a 0340 1541 823f 4bc3 813f 22bd 7d3f
000000f0: 29de 7a3f a15a 793f b786 7f3f ec6f 873f
00000100: bf95 7e3f 205f cd42 ed38 f53f 108f fd3f
00000110: 8ce9 0240 f5eb f73f ff5d 7c3f 1bef 763f
00000120: 423f 7e3f 1519 813f f4af 7c3f c292 7b3f
00000130: 8035 7d3f c9b1 7f3f 033d c842 3eec fb3f
00000140: 0a50 fe3f c1cb 0140 9ff1 f93f 7efb 783f
00000150: 0208 7b3f dd7b 7a3f d2ec 7e3f 12f5 803f
00000160: 5439 813f b2ed 7d3f a1ea 7d3f 98d2 ca42
00000170: 17c2 f33f adee 0240 0e10 fc3f 3143 0340
00000180: 6bcd 7f3f 5b42 843f f904 833f 198d 843f
00000190: 2f29 813f 0098 803f 4e4d 7c3f 878b 803f
000001a0: eab9 cc42 5018 ff3f 8b55 f83f a237 0340
000001b0: 72b3 fc3f 277a 833f e621 783f de96 7d3f
000001c0: b9c7 843f a39b 823f f6d4 773f 83a2 803f
000001d0: d1a6 833f 743c ca42 c8ed f63f 1b7d 0440
000001e0: f452 0340 bf9c fe3f 3409 7d3f b75f 723f
000001f0: 641f 7e3f 4b13 803f 571d 823f 933d 813f
00000200: c8a7 7d3f caeb 7a3f 264f cc42 867e ff3f
00000210: 1a20 ff3f da56 0240 02d7 0140 db58 813f
00000220: 7405 803f e02b 823f 78b6 823f 945a 793f
00000230: 4d54 813f 6d54 7d3f ac8f 7e3f 225c c242
00000240: 0968 fb3f bbc9 fb3f ccf2 f23f f5bc f83f
00000250: a32d 7a3f 4465 7b3f 5c76 7f3f 3a28 823f
00000260: 54de 7e3f f3e3 793f 62e8 783f f1fe 7c3f

sub_1/ReadVariableOp f4 [2, 156]
0.15602626 -0.20111907 -0.16338728 -0.05487457 0.0915768 -0.101795845 -0.06568061 -0.018103741
-0.14179207 0.14822109 -0.030198613 0.013941739 -0.043395672 -0.17815426 0.1423962 -0.002285959
-0.054877874 0.103440434 -0.010532294 -0.07575045 -0.078626074 -0.032728735 -0.023338243 -0.118797846
0.01535806 -0.12275075 0.14180331 0.06419732 0.020820757 -0.092088535 0.01417024 0.07308552
0.09807904 -0.15959977 -0.07006248 -0.11116908 -0.007534541 0.013892066 -0.0028369497 -0.05656587
0.028422473 0.120705426 -0.008968608 0.08764843 -0.05756644 0.19154923 -0.057280608 -0.03268846
0.036598355 -0.10200395 0.13876466 -0.06404244 0.12719117 0.016657596 -0.05623942 -0.015571975
0.1494924 0.007499944 -0.07712965 -0.0087489905 -0.17879514 -0.07765166 -0.11720065 -0.04934046
-0.031345997 -0.07185208 0.093804315 -0.13902502 0.14511602 -0.14928292 -0.22882012 -0.00034425355
0.063461244 0.0871076 0.0654216 -0.015600591 0.15729193 0.1981252 0.13474168 0.06431269
-0.026747033 -0.17523482 0.07436603 -0.039444897 0.09869077 0.097932115 -0.056454107 0.026919564
-0.05167874 0.034993388 -0.08815888 0.035181805 0.10622698 -0.05905822 -0.040269434 0.006946172
0.1284416 0.08585187 -0.032416884 0.06978361 0.12356914 -0.054362923 -0.19364546 -0.108918995
-0.032735478 -0.055205945 -0.22721691 -0.09682187 0.047745377 0.0177288 -0.027212065 -0.07375696
0.14313313 0.070982255 -0.022658939 0.0054832683 0.21281226 0.010247651 -0.1334888 -0.0074866205
-0.0131801935 -0.08431241 0.07721617 -0.05204849 0.01807806 -0.09416623 0.0042815073 0.20326962
0.10638739 -0.07491924 -0.039956443 0.17325765 0.12871002 0.20026413 0.1299498 -0.17103004
0.025525482 0.2512087 0.06658703 0.17956309 0.05142987 0.0009569244 0.086045384 0.091496974
-0.08705606 -0.046143893 0.018632354 -0.19778894 -0.037189785 -0.056205574 0.12731814 0.07301989
-0.20355608 -0.031140715 0.15906301 0.19256441 -0.11391536 0.1468378 0.119289674 0.040064134
-0.06686057 0.07432153 0.04795366 0.01321761 0.103522934 -0.108216785 0.022048123 -0.010178916
0.031683344 0.1300711 -0.103964 0.0016689873 0.040066544 -0.07552226 0.0076896683 0.05530569
0.057405196 0.023895374 0.01703934 0.08673476 -0.011212978 0.08962079 -0.10353114 -0.04687071
-0.015201313 0.06723419 -0.010345746 -0.053360015 -0.07160788 0.1165244 0.051152885 0.08116497
0.0055009974 -0.0101426495 0.0020712677 0.041298956 -0.020751355 -0.088127494 0.0065480154 -0.06399245
0.042029478 -0.13985083 0.04182079 0.02386597 -0.026720596 0.07447347 -0.10131261 0.04675763
-0.09286276 -0.0121617755 0.041060615 0.0113691585 -0.10914497 -0.0054757376 0.05631265 0.0063876715
0.13053901 0.05669377 0.08556864 0.036023658 0.022885831 0.052459475 -0.068486884 0.1015027
-0.10594976 0.108992025 0.16706243 0.00025134083 -0.046333294 -0.06359759 -0.047764562 0.011390051
-0.114839435 -0.14465196 -0.09837542 -0.04695494 0.019528111 0.12793961 -0.05429492 0.028798869
-0.072054505 -0.07150061 0.041217357 -0.019654077 0.037730843 -0.025548806 0.06436513 -0.02568637
-0.07755672 0.043118633 0.029400868 -0.0050714267 -0.093775705 -0.06268078 0.023667691 -0.050949283
00000000: 59c5 1f3e 28f2 4dbe ff4e 27be 28c4 60bd
00000010: 9e8c bb3d 577a d0bd 8e83 86bd 4c4e 94bc
00000020: f131 11be 45c7 173e 1563 f7bc e46b 643c
00000030: a9bf 31bd 126e 36be 4fd0 113e 07d0 15bb
00000040: 9fc7 60bd 94d8 d33d a58f 2cbc 0d23 9bbd
00000050: b506 a1bd 910e 06bd d82f bfbc 494c f3bd
00000060: 5fa0 7b3c bf64 fbbd e334 113e e279 833d
00000070: 4b90 aa3c ea98 bcbd 4b2a 683c dcad 953d
00000080: aadd c83d 1f6e 23be eb7c 8fbd 9dac e3bd
00000090: 50e4 f6bb 8c9b 633c 1eec 39bb 9db1 67bd
000000a0: 3fd6 e83c 6834 f73d 12f1 12bc 0581 b33d
000000b0: caca 6bbd 7b25 443e 129f 6abd 56e4 05bd
000000c0: 28e8 153d 72e7 d0bd 5318 0e3e af28 83bd
000000d0: 673e 023e 8375 883c 4e5b 66bd 9921 7fbc
000000e0: 8914 193e 17c2 f53b 26f6 9dbd ed57 0fbc
000000f0: 1316 37be d507 9fbd e506 f0bd 3919 4abd
00000100: a964 00bd 2f27 93bd 7a1c c03d 935c 0ebe
00000110: 4b99 143e 9fdd 18be d24f 6abe ee7c b4b9
00000120: f8f7 813d 7865 b23d c3fb 853d 9f99 7fbc
00000130: 2311 213e 55e1 4a3e b9f9 093e 5fb6 833d
00000140: 981c dbbc c270 33be 384d 983d f990 21bd
00000150: 631e ca3d a290 c83d 6c3c 67bd 6b86 dc3c
00000160: 16ad 53bd 3a55 0f3d a58c b4bd cc1a 103d
00000170: 888d d93d 08e7 71bd 90f1 24bd b79c e33b
00000180: 3286 033e 1bd3 af3d 91c7 04bd b6ea 8e3d
00000190: d111 fd3d a8ab 5ebd ff4a 46be ec10 dfbd
000001a0: a315 06bd a11f 62bd 8dab 68be 8b4a c6bd
000001b0: a890 433d fd3b 913c d6eb debc e40d 97bd
000001c0: 7e91 123e 255f 913d 3d9f b9bc fdac b33b
000001d0: 75eb 593e c3e5 273c 4ab1 08be 5352 f5bb
000001e0: bdf1 57bc fcab acbd 8323 9e3d cc30 55bd
000001f0: 7118 943c 39da c0bd e34b 8c3b e925 503e
00000200: a2e1 d93d 426f 99bd 5ea9 23bd 746a 313e
00000210: 8fcc 033e 0a12 4d3e 8f11 053e 8022 2fbe
00000220: d11a d13c 6d9e 803e c85e 883d 63df 373e
00000230: 21a8 523d 1cda 7a3a 9038 b03d c462 bb3d
00000240: 734a b2bd 6101 3dbd e1a2 983c 2f89 4abe
00000250: 5154 18bd d137 66bd b05f 023e 748b 953d
00000260: 0171 50be d01a ffbc 6ae1 223e 9b2f 453e
00000270: 754c e9bd a65c 163e 254e f43d 4a1a 243d
00000280: 32ee 88bd e335 983d 0f6b 443d ad8e 583c
00000290: d503 d43d c3a0 ddbd 449e b43c 78c5 26bc
000002a0: 65c6 013d 5c31 053e 14eb d4bd ecc1 da3a
000002b0: d11c 243d 6aab 9abd 9df9 fb3b 3888 623d
000002c0: b621 6b3d 3bc0 c33c 1696 8b3c fea1 b13d
000002d0: a3b6 37bc 1b8b b73d 2208 d4bd 80fb 3fbd
000002e0: ee0e 79bc 14b2 893d 3481 29bc 0890 5abd
000002f0: 27a7 92bd 58a4 ee3d b085 513d d239 a63d
00000300: b641 b43b 5b2d 26bc 1bbe 073b 1829 293d
00000310: bffe a9bc 307c b4bd bc90 d63b 790e 83bd
00000320: 1a27 2c3d 0e35 0fbe 474c 2b3d 9182 c33c
00000330: 27e5 dabc 8c85 983d fc7c cfbd ee84 3f3d
00000340: d52e bebd 2f42 47bc 2d2f 283d b545 3a3c
00000350: 6687 dfbd d16d b3bb 18a8 663d ac4f d13b
00000360: 05ac 053e ba37 683d 9c3e af3d 8b8d 133d
00000370: 117b bb3c bfdf 563d da42 8cbd a6e0 cf3d
00000380: 30fc d8bd 3637 df3d 6a12 2b3e 65c6 8339
00000390: fbc7 3dbd 743f 82bd c6a4 43bd 569d 3a3c
000003a0: f030 ebbd a51f 14be 0d79 c9bd d353 40bd
000003b0: 6bf9 9f3c 9a02 033e 5a64 5ebd 9beb eb3c
000003c0: 5091 93bd e96e 92bd 88d3 283d 9601 a1bc
000003d0: a88b 1a3d bb4b d1bc ded1 833d 396c d2bc
000003e0: 0fd6 9ebd 2a9d 303d 17da f03c 362e a6bb
000003f0: 7a0d c0bd c85e 80bd bfe2 c13c 32b0 50bd

sub/ReadVariableOp f4 [156]
0.00011214171 -0.011011845 -0.010552048 1.5050162 1.4817238 -5.04014 -5.009236 -4.98941
-4.9963284 -5.0353665 -5.0326786 -4.9932046 -5.007139 -0.000562217 0.006173343 0.006901107
1.4803708 1.526027 -5.0282545 -4.9986324 -4.9316115 -4.9949064 -5.0202823 -4.9824805
-4.996082 -5.0039945 0.00039306298 -0.0051413635 0.01439322 1.514381 1.4895887 -4.991833
-4.991846 -4.9923644 -5.020751 -5.03582 -4.9520135 -4.9422984 -4.99098 0.00020025072
0.0037183654 0.0037502057 1.4909291 1.5203507 -5.021754 -5.02423 -5.0283446 -5.0001736
-4.9749417 -5.0330353 -4.9780707 -4.986883 -2.8419503e-05 0.010754933 -0.02391139 1.5122612
1.5040799 -5.0067 -4.9962397 -5.0416145 -5.014001 -4.9969487 -4.9824586 -5.002681
-4.9847727 0.00011386745 0.029127993 -0.0149635365 1.4990222 1.4841212 -4.9680877 -4.9925256
-4.996845 -5.0050683 -4.997894 -5.0022483 -5.026281 -5.0188107 3.9826034e-05 0.010330634
-0.008297316 1.5196846 1.5117214 -4.9821563 -4.966772 -4.9926624 -4.9387918 -5.0397143
-4.9797163 -5.0110617 -5.0163336 -0.00012277743 0.019725408 -0.03390462 1.502861 1.5176972
-5.007049 -5.05955 -4.983203 -5.0605164 -4.9940085 -4.9962106 -4.984321 -5.025801
0.0003943398 -0.005211392 0.022505382 1.5014532 1.5268478 -5.0432515 -5.014503 -5.0318623
-4.9523096 -4.9979153 -4.998149 -4.999796 -4.9593616 -0.00033672433 -8.746029e-05 -0.017784247
1.5228764 1.4996266 -5.0085793 -5.0385237 -5.016727 -5.0054574 -4.996056 -5.011594
-4.9827585 -4.972439 0.00029912312 0.00796721 -0.008202448 1.4957944 1.4947386 -4.9686227
-4.973587 -5.038709 -5.0210223 -4.9429636 -4.9818773 -5.010766 -5.0352116 0.00033962002
0.0012015357 0.009453835 1.48946 1.4909282 -4.9602785 -4.9642344 -4.982417 -4.97066
-5.0533514 -5.0102863 -4.972544 -4.9731097
00000000: 9f2d eb38 076b 34bc 7fe2 2cbc 5fa4 c03f
00000010: 20a9 bd3f d448 a1c0 a94b a0c0 3fa9 9fc0
00000020: ece1 9fc0 b921 a1c0 b40b a1c0 55c8 9fc0
00000030: 7c3a a0c0 bf61 13ba c149 ca3b ae22 e23b
00000040: ca7c bd3f da54 c33f 76e7 a0c0 ccf4 9fc0
00000050: c3cf 9dc0 46d6 9fc0 27a6 a0c0 7b70 9fc0
00000060: e7df 9fc0 b920 a0c0 0514 ce39 e278 a8bb
00000070: 8ad1 6b3c 3dd7 c13f d8aa be3f 19bd 9fc0
00000080: 34bd 9fc0 73c1 9fc0 fea9 a0c0 7025 a1c0
00000090: e576 9ec0 4f27 9ec0 1cb6 9fc0 65fa 5139
000000a0: d2af 733b 03c6 753b c4d6 be3f da9a c23f
000000b0: 35b2 a0c0 7ec6 a0c0 33e8 a0c0 6c01 a0c0
000000c0: b932 9fc0 a00e a1c0 5b4c 9fc0 8c94 9fc0
000000d0: 6b66 eeb7 7535 303c d2e1 c3bc c691 c13f
000000e0: b185 c03f e336 a0c0 32e1 9fc0 e854 a1c0
000000f0: b272 a0c0 01e7 9fc0 4d70 9fc0 f615 a0c0
00000100: 4283 9fc0 1fcc ee38 d49d ee3c 9f29 75bc
00000110: f6df bf3f aff7 bd3f 93fa 9ec0 c5c2 9fc0
00000120: 27e6 9fc0 8529 a0c0 bfee 9fc0 6b12 a0c0
00000130: 4bd7 a0c0 199a a0c0 e10a 2738 d241 293c
00000140: 77f1 07bc 0685 c23f 1680 c13f d36d 9fc0
00000150: ccef 9ec0 e4c3 9fc0 950a 9ec0 5745 a1c0
00000160: d659 9fc0 9e5a a0c0 ce85 a0c0 d1bd 00b9
00000170: 2e97 a13c 92df 0abd c05d c03f e743 c23f
00000180: bf39 a0c0 d5e7 a1c0 6676 9fc0 c0ef a1c0
00000190: ebce 9fc0 f5e0 9fc0 8f7f 9fc0 5dd3 a0c0
000001a0: 64bf ce39 53c4 aabb 355d b83c 9e2f c03f
000001b0: c06f c33f 5162 a1c0 cf76 a0c0 0405 a1c0
000001c0: 5279 9ec0 ecee 9fc0 d6f0 9fc0 54fe 9fc0
000001d0: 17b3 9ec0 608a b0b9 e36a b7b8 45b0 91bc
000001e0: 9ded c23f c4f3 bf3f 4846 a0c0 963b a1c0
000001f0: 0789 a0c0 b52c a0c0 b1df 9fc0 fa5e a0c0
00000200: c272 9fc0 381e 9fc0 a0d3 9c39 e788 023c
00000210: 8f63 06bc 3176 bf3f 9853 bf3f f5fe 9ec0
00000220: a027 9fc0 1b3d a1c0 37ac a0c0 c22c 9ec0
00000230: 8a6b 9fc0 3258 a0c0 7420 a1c0 070f b239
00000240: d97c 9d3a 42e4 1a3c a0a6 be3f bcd6 be3f
00000250: 9aba 9ec0 02db 9ec0 f66f 9fc0 a60f 9fc0
00000260: 0eb5 a1c0 4454 a0c0 151f 9fc0 b723 9fc0
