assets/classification.tflite (tflite, 5832 bytes, 3 tensors)

sequential/y_pred/MatMul i1 [2, 10] scale=0.0054503274 zero_point=0
0.44147652 -0.583185 0.40332422 0.5886354 0.6812909 -0.4578275 -0.20711245 -0.60498637
0.049052946 0.49052948 0.3542713 0.09810589 -0.12535752 -0.1199072 -0.52868176 0.010900655
-0.6921916 0.316119 -0.5177811 0.20711245
00000000: 5195 4a6c 7dac da91 095a 4112 e9ea 9f02
00000010: 813a a126

sequential/dense_1/MatMul i1 [10, 20] scale=0.0036838807 zero_point=0
0.18419403 -0.2836588 -0.24313612 0.05157433 0.43101403 0.10683254 0.46785283 -0.39785913
-0.014735523 -0.16209075 0.10683254 0.10683254 0.25418776 0.44574955 0.26155552 -0.27629104
0.022103284 -0.069993734 -0.24313612 0.11788418 -0.22103284 -0.44574955 0.27997494 0.25787166
0.16945851 -0.17682627 -0.20629732 -0.35733643 -0.34996867 0.047890447 -0.18419403 -0.20629732
0.23208448 0.077361494 0.23208448 0.3426009 -0.17314239 0.14735523 -0.16209075 -0.13261971
-0.084729254 -0.36838806 -0.011051642 0.401543 -0.18419403 -0.22471672 -0.13630359 0.077361494
-0.15840687 -0.044206567 0.12156806 0.19524567 -0.081045374 -0.33154926 -0.05157433 -0.26523942
0.3241815 -0.37207195 -0.38312358 -0.30944598 0.24682 0.073677614 0.3426009 0.014735523
-0.2284006 0.31312984 -0.21366508 -0.18787791 -0.10314866 0.30944598 0.3647042 0.18051015
-0.26892328 -0.34996867 0.0 -0.19156179 -0.12156806 -0.22103284 0.42733017 0.3426009
-0.16209075 0.24313612 -0.38312358 -0.16209075 -0.2873427 0.27260718 -0.13630359 0.092097014
-0.34996867 0.29839432 0.33154926 0.21366508 -0.066309854 0.19156179 0.13630359 -0.37575582
-0.19892956 0.37207195 0.27629104 0.24313612 -0.3278654 0.26892328 -0.2505039 0.19156179
-0.11788418 -0.44574955 0.0 0.30944598 -0.4531173 -0.16945851 0.31312984 0.23576836
-0.19524567 0.23576836 -0.088413134 -0.24682 -0.12525195 0.2505039 -0.2505039 0.011051642
0.37575582 0.19156179 -0.2099812 -0.29839432 0.34628478 0.33891702 0.069993734 -0.12156806
-0.095780894 0.036838807 0.25418776 0.18051015 -0.26155552 -0.14735523 0.081045374 -0.036838807
0.24682 -0.05525821 -0.040522687 -0.11051642 -0.081045374 0.33891702 0.19892956 0.23208448
-0.081045374 0.29471046 0.31681374 -0.41259465 0.43101403 -0.13998747 -0.2099812 0.42364627
0.24313612 -0.1142003 -0.42364627 0.18787791 0.34996867 0.036838807 0.029471045 0.30207822
0.25787166 0.16577463 0.19156179 0.15840687 0.37575582 0.15472299 -0.4052269 -0.1142003
-0.11051642 0.084729254 0.34628478 0.088413134 -0.0073677613 -0.39417523 -0.092097014 0.36838806
-0.35365254 0.25418776 -0.17682627 -0.084729254 0.19524567 -0.26523942 -0.081045374 -0.0036838807
0.34628478 0.4199624 -0.05894209 0.029471045 0.29839432 -0.3278654 -0.24682 0.19156179
-0.27629104 -0.19524567 0.25418776 -0.069993734 -0.092097014 0.3241815 0.029471045 0.31681374
00000000: 32b3 be0e 751d 7f94 fcd4 1d1d 4579 47b5
00000010: 06ed be20 c487 4c46 2ed0 c89f a10d cec8
00000020: 3f15 3f5d d128 d4dc e99c fd6d cec3 db15
00000030: d5f4 2135 eaa6 f2b8 589b 98ac 4314 5d04
00000040: c255 c6cd e454 6331 b7a1 00cc dfc4 745d
00000050: d442 98d4 b24a db19 a151 5a3a ee34 259a
00000060: ca65 4b42 a749 bc34 e087 0054 85d2 5540
00000070: cb40 e8bd de44 bc03 6634 c7af 5e5c 13df
00000080: e60a 4531 b9d8 16f6 43f1 f5e2 ea5c 363f
00000090: ea50 5690 75da c773 42e1 8d33 5f0a 0852
000000a0: 462d 342b 662a 92e1 e217 5e18 fe95 e764
000000b0: a045 d0e9 35b8 eaff 5e72 f008 51a7 bd34
000000c0: b5cb 45ed e758 0856

sequential/dense/MatMul i1 [20, 156] scale=0.0017075998 zero_point=0
-0.011953199 -0.030736797 -0.0324444 0.16222198 0.042689998 0.068303995 0.0324444 -0.13660799
0.039274797 -0.16563718 -0.027321598 0.044397596 -0.18100558 -0.122947186 -0.035859596 0.17246759
0.059765995 0.122947186 -0.10757879 -0.10757879 0.13660799 -0.068303995 0.1297776 0.010245599
-0.18783598 0.09733319 -0.09733319 -0.08196479 -0.11270159 -0.1502688 0.0375672 0.0375672
0.08879519 -0.17075999 -0.19125119 0.058058396 -0.13319279 0.11099399 -0.035859596 -0.11611679
0.08879519 -0.0017075998 -0.11611679 -0.056350794 -0.14685358 0.15880679 -0.054643195 0.16734478
-0.11440919 -0.13319279 -0.0375672 -0.16734478 0.061473593 -0.0324444 -0.13831559 0.12465479
0.15880679 0.12806998 0.17075999 0.09733319 0.058058396 -0.085379995 0.0051227994 -0.14343838
-0.040982395 -0.13319279 0.0068303994 0.068303995 0.16905239 -0.0324444 0.039274797 -0.15709919
-0.11953199 -0.058058396 -0.051227994 -0.11270159 0.10928639 0.07171919 -0.0324444 0.13831559
0.056350794 0.008537999 -0.046105195 0.034151997 -0.058058396 0.0017075998 -0.20491198 -0.042689998
-0.15880679 -0.19125119 0.044397596 -0.052935597 -0.09733319 0.16563718 -0.010245599 -0.18271318
0.15197639 0.0751344 -0.15880679 -0.09221039 -0.034151997 -0.20491198 0.015368398 0.07342679
-0.058058396 -0.07342679 -0.052935597 0.0187836 -0.11270159 -0.10757879 0.12123959 0.030736797
-0.015368398 0.09391799 -0.11270159 0.14514598 -0.09904079 0.049520396 -0.19466639 0.07342679
0.09221039 -0.008537999 0.030736797 0.15880679 -0.19125119 -0.044397596 0.09904079 -0.0051227994
0.12806998 -0.0375672 -0.16563718 -0.11440919 0.17759039 0.066596396 0.14343838 -0.095625594
0.0068303994 0.17417519 -0.049520396 -0.0017075998 0.076841995 -0.0187836 -0.12806998 -0.122947186
-0.07342679 -0.023906399 -0.022198798 0.08025719 -0.11440919 -0.10245599 -0.08879519 0.09221039
-0.061473593 0.08879519 0.039274797 -0.07854959 -0.16905239 -0.010245599 0.14856118 0.029029198
-0.046105195 0.034151997 0.059765995 0.058058396 0.08196479 0.16905239 -0.11611679 0.076841995
0.025613997 0.044397596 0.10245599 -0.09391799 0.14856118 0.09050279 0.19295879 -0.10074839
-0.023906399 -0.010245599 0.15197639 -0.030736797 0.09391799 0.09050279 -0.022198798 0.13319279
-0.047812797 -0.13660799 -0.040982395 0.17929798 0.16392958 0.18442078 0.1297776 -0.052935597
-0.14173079 -0.017075999 0.049520396 -0.07171919 -0.066596396 -0.08879519 0.18783598 0.13490039
0.11270159 -0.040982395 0.14343838 -0.11953199 0.023906399 0.008537999 -0.15539159 -0.017075999
0.017075999 -0.0751344 -0.022198798 -0.17759039 -0.16051438 0.15539159 0.16222198 -0.13490039
-0.020491198 0.13831559 -0.059765995 -0.0187836 -0.040982395 0.011953199 0.14514598 -0.16734478
0.10757879 -0.035859596 0.17417519 -0.09050279 0.11782439 -0.0017075998 0.0375672 0.16051438
-0.044397596 -0.09904079 -0.008537999 0.15368399 -0.023906399 -0.18100558 -0.10245599 -0.0051227994
0.07854959 0.010245599 -0.042689998 -0.13831559 0.030736797 -0.049520396 0.052935597 0.061473593
0.15368399 0.052935597 0.015368398 0.11440919 -0.08879519 -0.15368399 0.025613997 -0.16563718
00000000: f9ee ed5f 1928 13b0 179f f01a 96b8 eb65
00000010: 2348 c1c1 50d8 4c06 9239 c7d0 bea8 1616
00000020: 349c 9022 b241 ebbc 34ff bcdf aa5d e062
00000030: bdb2 ea9e 24ed af49 5d4b 6439 22ce 03ac
00000040: e8b2 0428 63ed 17a4 bade e2be 402a ed51
00000050: 2105 e514 de01 88e7 a390 1ae1 c761 fa95
00000060: 592c a3ca ec88 092b ded5 e10b bec1 4712
00000070: f737 be55 c61d 8e2b 36fb 125d 90e6 3afd
00000080: 4bea 9fbd 6827 54c8 0466 e3ff 2df5 b5b8
00000090: d5f2 f32f bdc4 cc36 dc34 17d2 9dfa 5711
000000a0: e514 2322 3063 bc2d 0f1a 3cc9 5735 71c5
000000b0: f2fa 59ee 3735 f34e e4b0 e869 606c 4ce1
000000c0: adf6 1dd6 d9cc 6e4f 42e8 54ba 0e05 a5f6
000000d0: 0ad4 f398 a25b 5fb1 f451 ddf5 e807 559e
000000e0: 3feb 66cb 45ff 165e e6c6 fb5a f296 c4fd
000000f0: 2e06 e7af 12e3 1f24 5a1f 0943 cca6 0f9f
